…
Entrenar\nmodelo_aguja |&gt; fit(\n  x_entrena, y_entrena,\n  epochs = 200,\n  verbose = TRUE, \n  batch_size = 64,\n  validation_data = list(x_valida, y_valida)\n)\nsave_model(modelo_aguja, \"cache/modelo-aguja.keras\")\n\n\nmodelo &lt;- load_model(\"cache/modelo-aguja.keras\")\nmodelo\n\nModel: \"sequential_9\"\n┏━━━━━━━━━━━━━━━━━━━━━━━━━━━━━━━━━━━┳━━━━━━━━━━━━━━━━━━━━━━━━━━┳━━━━━━━━━━━━━━━┓\n┃ Layer (type)                      ┃ Output Shape             ┃       Param # ┃\n┡━━━━━━━━━━━━━━━━━━━━━━━━━━━━━━━━━━━╇━━━━━━━━━━━━━━━━━━━━━━━━━━╇━━━━━━━━━━━━━━━┩\n│ rescaling_7 (Rescaling)           │ (None, 64, 64, 3)        │             0 │\n├───────────────────────────────────┼──────────────────────────┼───────────────┤\n│ random_rotation_7                 │ (None, 64, 64, 3)        │             0 │\n│ (RandomRotation)                  │                          │               │\n├───────────────────────────────────┼──────────────────────────┼───────────────┤\n│ random_zoom_7 (RandomZoom)        │ (None, 64, 64, 3)        │             0 │\n├───────────────────────────────────┼──────────────────────────┼───────────────┤\n│ conv2d_26 (Conv2D)                │ (None, 60, 60, 32)       │         2,432 │\n├───────────────────────────────────┼──────────────────────────┼───────────────┤\n│ max_pooling2d_26 (MaxPooling2D)   │ (None, 30, 30, 32)       │             0 │\n├───────────────────────────────────┼──────────────────────────┼───────────────┤\n│ conv2d_27 (Conv2D)                │ (None, 26, 26, 32)       │        25,632 │\n├───────────────────────────────────┼──────────────────────────┼───────────────┤\n│ max_pooling2d_27 (MaxPooling2D)   │ (None, 13, 13, 32)       │             0 │\n├───────────────────────────────────┼──────────────────────────┼───────────────┤\n│ conv2d_28 (Conv2D)                │ (None, 11, 11, 16)       │         4,624 │\n├───────────────────────────────────┼──────────────────────────┼───────────────┤\n│ max_pooling2d_28 (MaxPooling2D)   │ (None, 5, 5, 16)         │             0 │\n├───────────────────────────────────┼──────────────────────────┼───────────────┤\n│ flatten_9 (Flatten)               │ (None, 400)              │             0 │\n├───────────────────────────────────┼──────────────────────────┼───────────────┤\n│ dropout_25 (Dropout)              │ (None, 400)              │             0 │\n├───────────────────────────────────┼──────────────────────────┼───────────────┤\n│ dense_25 (Dense)                  │ (None, 100)              │        40,100 │\n├───────────────────────────────────┼──────────────────────────┼───────────────┤\n│ dropout_26 (Dropout)              │ (None, 100)              │             0 │\n├───────────────────────────────────┼──────────────────────────┼───────────────┤\n│ dense_26 (Dense)                  │ (None, 100)              │        10,100 │\n├───────────────────────────────────┼──────────────────────────┼───────────────┤\n│ dropout_27 (Dropout)              │ (None, 100)              │             0 │\n├───────────────────────────────────┼──────────────────────────┼───────────────┤\n│ dense_27 (Dense)                  │ (None, 1)                │           101 │\n└───────────────────────────────────┴──────────────────────────┴───────────────┘\n Total params: 248,969 (972.54 KB)\n Trainable params: 82,989 (324.18 KB)\n Non-trainable params: 0 (0.00 B)\n Optimizer params: 165,980 (648.36 KB)\n\n\nY observamos que obtenemos predicciones prometedoras:\n\npreds &lt;- predict(modelo, x[-indices_entrena,,,])\n\n23/23 - 1s - 24ms/step\n\npreds_tbl &lt;- tibble
…
